Test Chatbot UI/data.pth (torch, 5015 bytes, 6 tensors)

l1.weight f4 [8, 54]
0	0x3f3896b4	0.72104955
1	0x3ef63971	0.480907
2	0x3f2001dc	0.6250284
3	0x3dfdc18a	0.1239043
4	0x3ec96d3e	0.39341158
5	0xbf212b5e	-0.629568
6	0x3f2d3344	0.6765635
7	0x3eb893a7	0.3605015
8	0x3f1e642f	0.6187162
9	0x3ea859b5	0.3288094
10	0x3d7df3d1	0.0620001
11	0x3ded6fbd	0.11593578
12	0x3e78d729	0.24300827
13	0x3db397e4	0.08769205
14	0x3e8b04b7	0.27152035
15	0xbcaafab5	-0.0208715
16	0x3d73a4ed	0.059483457
17	0xbf214d06	-0.63008153
18	0xbe750544	-0.2392779
19	0x3d541957	0.05178198
20	0x3ee92351	0.45534757
21	0x3d786076	0.060638867
22	0x3c7b16c6	0.015325254
23	0xbdfe36b3	-0.12412777
24	0x3f17c70e	0.5928811
25	0x3e03ba67	0.12864076
26	0xbeda0e9b	-0.42589268
27	0x3e5002d2	0.20313576
28	0x3c23b616	0.009992143
29	0xbd66e1eb	-0.056367796
30	0xbf0adf62	-0.54247105
31	0x3d499bd0	0.04922086
32	0x3e875d47	0.26438352
33	0x3ee02647	0.43779203
34	0x3ef44a8e	0.4771313
35	0xbc4eed43	-0.01262981
36	0xbe0d49f7	-0.13797747
37	0x3f0592cc	0.5217712
38	0x3f03586d	0.513068
39	0x3f085f9c	0.5327089
40	0xbef3d78f	-0.47625396
41	0xbf07c5ae	-0.5303601
42	0x3dcc4e8b	0.099759184
43	0x3e5eb5e1	0.21749069
44	0x3f0c7ae1	0.54875
45	0x3ecf9cb6	0.40549248
46	0x3f87408f	1.0566577
47	0x3f1a914d	0.6037796
48	0xbdc09c08	-0.094047606
49	0xbec11805	-0.37713638
50	0xbce1e961	-0.027577104
51	0xbe455640	-0.19271183
52	0x3f036161	0.51320463
53	0x3ee14ed1	0.44005445
54	0xbe3177c2	-0.1733084
55	0xbefeec12	-0.49789482
56	0x3eca83f2	0.3955379
57	0xbee38455	-0.444369
58	0xbea7cfe5	-0.32775798
59	0x3f892740	1.0715103
60	0x3e7eba27	0.24875699
61	0x3e51ac87	0.2047597
62	0x3f103735	0.5633424
63	0x3e96f8bc	0.29486644
64	0xbebb52c1	-0.36586574
65	0x3f23686d	0.63831216
66	0x3f34c597	0.70614
67	0x3f249d72	0.6430274
68	0xbe55cda6	-0.2087923
69	0x3f0cac99	0.54950863
70	0xbe94ccfe	-0.29062647
71	0x3f66b22d	0.90115625
72	0x3e9d7b98	0.30758357
73	0xbf2808c2	-0.65638363
74	0xbdc6ad95	-0.09701077
75	0xbf281e8c	-0.6567161
76	0xbf19f665	-0.60141593
77	0x3e2c111d	0.16803403
78	0x3f1c52bf	0.6106376
79	0xbecc0811	-0.39849904
80	0x3ed6239f	0.41824052
81	0xbeed2628	-0.46318173
82	0x3efb762a	0.4911359
83	0xbeec4c52	-0.46151978
84	0x3f474f42	0.7785531
85	0x3f21a991	0.6314936
86	0xbd9fdfe8	-0.078063786
87	0x3eca2dd6	0.39488095
88	0xbd8447c3	-0.06459
89	0x3ee10000	0.43945312
90	0x3ef373fa	0.4754942
91	0x3f214de4	0.63009477
92	0x3ed388ec	0.413154
93	0x3ea82836	0.3284318
94	0x3f341830	0.7034941
95	0x3e77da65	0.24204405
96	0x3f19d13d	0.600849
97	0xbdd46892	-0.10371508
98	0x3f5b1aee	0.85587966
99	0xbe8f3b54	-0.2797495
100	0xbefce56e	-0.4939379
101	0xbdbc15c1	-0.09183837
102	0x3e3f8a29	0.18705048
103	0x3f0f9565	0.5608733
104	0x3ec60053	0.38672122
105	0x3e75bce2	0.23997834
106	0x3e55e0ab	0.20886485
107	0x3d756f18	0.0599204
108	0xbe81d6d7	-0.25359222
109	0x3edba59a	0.4289978
110	0xbec7d5e3	-0.3903037
111	0x3e7a9457	0.2447065
112	0x3e0ecd65	0.1394554
113	0x3f8063e5	1.0030485
114	0xbd81af37	-0.06332248
115	0xbe941b76	-0.289272
116	0xbed9c568	-0.42533422
117	0xbe9cb1d7	-0.3060443
118	0x3ee8fc75	0.4550511
119	0xbe9c434a	-0.30520087
120	0x3e9aa405	0.30203262
121	0xbea803d4	-0.3281542
122	0x3ef12aea	0.47103053
123	0xbe02267e	-0.12709996
124	0x3f051168	0.51979685
125	0x3f87dc17	1.0614041
126	0x3e1cf366	0.15327224
127	0x3f0cdbfe	0.5502318
128	0xbe20e13c	-0.1571092
129	0x3f0257bc	0.5091512
130	0x3f1b4b8b	0.60662144
131	0x3ec5c0ff	0.38623807
132	0xbe466a73	-0.19376545
133	0x3ef05fb9	0.4694803
134	0x3e80f089	0.25183514
135	0x3f277ea3	0.6542761
136	0x3c5a68da	0.013330663
137	0x3eff2c71	0.49838594
138	0x3f3e7920	0.7440357
139	0xbdff74c5	-0.12473444
140	0xbde85332	-0.11343993
141	0xbebf8f03	-0.37413797
142	0x3f057a20	0.5213947
143	0xbe8928ed	-0.26789036
144	0xbdd9321a	-0.10605259
145	0xbf030be1	-0.5119
146	0xbdc190a0	-0.09451413
147	0xbe822921	-0.25422004
148	0x3f53402d	0.825198
149	0x3ea4796b	0.32123885
150	0xbe398a1d	-0.18119092
151	0x3ee1bebb	0.44090828
152	0xbeffb4a5	-0.49942508
153	0x3f24d923	0.64393824
154	0xbf3f6974	-0.74770284
155	0xbeac4651	-0.33647397
156	0xbbed0d97	-0.007234286
157	0x3e5cc978	0.21561229
158	0xbe16b027	-0.14715634
159	0x3e02fccc	0.12791747
160	0xbe10cba0	-0.14140177
161	0x3d5034fc	0.05083178
162	0xbdb2042c	-0.08692202
163	0xbed9b0e3	-0.42517766
164	0x3e65d327	0.2244383
165	0xbe09fd5d	-0.13475557
166	0x3e6a864c	0.22902793
167	0xbdfb3bf6	-0.12267296
168	0xbd306ad0	-0.043070614
169	0x3e2dc7c6	0.16970739
170	0x3ef8246a	0.48465282
171	0x3e7e33a1	0.24824382
172	0xbd54748e	-0.051868968
173	0xbe254930	-0.161412
174	0x3f27e345	0.6558116
175	0x3dea5fbb	0.114440404
176	0xbd841fd2	-0.06451382
177	0xbe4d7d6b	-0.20067374
178	0xbe08604a	-0.13317981
179	0xbda9fef1	-0.08300579
180	0x3ebd6cb5	0.36997
181	0xbe097632	-0.13423994
182	0xbd9bd48e	-0.07608901
183	0xbe06c0e4	-0.1315952
184	0xbe144d8b	-0.14482705
185	0xbf1dfde9	-0.6171556
186	0xbe35089c	-0.17679065
187	0xbe23d343	-0.15998559
188	0x3f1b496a	0.60658896
189	0xbee42ed3	-0.44566974
190	0x3e809b82	0.25118643
191	0xbe790771	-0.24319245
192	0xbe7588e2	-0.23977998
193	0x3db3873f	0.087660305
194	0xbd9a20ca	-0.07525785
195	0x3eaad514	0.3336569
196	0x3cd1588a	0.025554914
197	0xbdcaaf8f	-0.098967664
198	0x3ee012aa	0.4376424
199	0x3efc49cd	0.49275056
200	0x3c31e9d0	0.010858968
201	0xbd6879ea	-0.05675689
202	0xbe3ca665	-0.1842285
203	0x3f144fc4	0.5793421
204	0xbcb965ac	-0.022631489
205	0xbd2d8b85	-0.042369384
206	0x3e155e25	0.14586695
207	0xbd50cd19	-0.050976846
208	0xbececaa6	-0.40388983
209	0xbd65d3b0	-0.056110084
210	0x3e274017	0.16333042
211	0x3f21bcd9	0.63178784
212	0xbe193dd0	-0.14964986
213	0x3ef58b37	0.47957775
214	0x3da6e218	0.08148593
215	0x3ebb5ec9	0.36595753
216	0x3c8e9a06	0.017407428
217	0x3e9db181	0.30799487
218	0x3eebd5dc	0.460616
219	0xbe6f4f8c	-0.23370188
220	0x3e2a9843	0.16659646
221	0xbea44ef9	-0.320915
222	0x3f000873	0.5001289
223	0x3eb0b15d	0.34510317
224	0x3e962734	0.29326785
225	0x3e9e5cd7	0.30930206
226	0xbdee3e1c	-0.1163294
227	0xbe522937	-0.20523535
228	0x3ef74684	0.48295987
229	0x3d2ee7cb	0.042701524
230	0x3ef42c0e	0.4768986
231	0xbe8355b7	-0.25651333
232	0xbe51a815	-0.20474274
233	0xbea454cf	-0.32095954
234	0x3ed9ecec	0.4256357
235	0xbea44d2a	-0.32090122
236	0x3dd6713c	0.104708165
237	0xbea45457	-0.32095596
238	0xbea44f41	-0.32091716
239	0xbf297e01	-0.6620789
240	0x3e4ffab2	0.20310476
241	0xbe5ed392	-0.21760395
242	0x3eed5a35	0.46357885
243	0x3eddcafa	0.4331892
244	0x3edf0da6	0.435651
245	0x3e818489	0.2529643
246	0xbe83fc7e	-0.25778574
247	0xbe1de08e	-0.15417692
248	0xbd392f35	-0.045211036
249	0x3f08d4b2	0.5344955
250	0x3f16d83d	0.58923703
251	0xbeb5ce40	-0.3550892
252	0x3ecddf0a	0.40209228
253	0x3ee94469	0.45560005
254	0x3f041fc1	0.5161095
255	0x3f2234ee	0.63362014

l1.bias f4 [8]
0	0x3f215787	0.6302418
1	0x3f280eca	0.65647566
2	0x3f3f4832	0.74719536
3	0x3e069eaf	0.1314647
4	0x3ea444e3	0.32083806
5	0x3f94fc8c	1.1639571
6	0x3e103b8c	0.14085215
7	0x3f5fcf6a	0.87425864

l2.weight f4 [8, 8]
0	0x3ecf80c7	0.40527937
1	0x3e12daf3	0.14341335
2	0x3f6ac4ed	0.91706735
3	0x3f26edc7	0.6520657
4	0x3f5d15db	0.86361474
5	0x3f246982	0.6422349
6	0x3f931b09	1.1492625
7	0xbf9362a7	-1.1514481
8	0xbf0693be	-0.52569187
9	0x3f894659	1.0724593
10	0x3fb206ce	1.3908327
11	0xbec995e3	-0.39372167
12	0xbfa15c29	-1.260625
13	0x3fa71d5f	1.3055838
14	0xbf49a919	-0.7877365
15	0x3d9578c1	0.072984226
16	0x3e34ec18	0.17668188
17	0xbcc3d995	-0.023907462
18	0xbe91c1b0	-0.28468084
19	0xbe4cc06c	-0.19995278
20	0x3e352427	0.17689572
21	0xbebb0551	-0.36527494
22	0xbd899460	-0.067177534
23	0xbd951130	-0.07278669
24	0x3f1f9ba5	0.6234687
25	0xbfbe7e6d	-1.4882332
26	0x3f0f399d	0.55947286
27	0xbf08fc34	-0.5350983
28	0x3d9a9063	0.07547071
29	0x3f6d808c	0.9277427
30	0x3d4d2c8d	0.050091315
31	0x3fb30fca	1.3989193
32	0x3d8632ea	0.0655268
33	0xbe8332d8	-0.25624728
34	0xbe05e178	-0.13074291
35	0xbc24d9b2	-0.010061668
36	0xbe412ad3	-0.18863992
37	0x3d9f4f9f	0.077788584
38	0xbe0b7d9a	-0.13622132
39	0xbdae5f16	-0.0851423
40	0x3faefa28	1.3670092
41	0x3ec9dec9	0.39427784
42	0xbf78d3bf	-0.971981
43	0xbc253179	-0.010082596
44	0xbd1ede62	-0.0387863
45	0x3e1d9738	0.15389717
46	0xbed34978	-0.4126699
47	0x3fa99838	1.3249578
48	0x3ed21dff	0.4103851
49	0x3ee21be2	0.44161898
50	0xbf1bc1e8	-0.6084275
51	0x3f968291	1.1758596
52	0x3f63efbe	0.8903769
53	0x3e8b1707	0.27166006
54	0x3f757f38	0.95897245
55	0x3e0dd565	0.13850935
56	0x3d974730	0.07386625
57	0xbe27ff95	-0.1640609
58	0xbea5f0c8	-0.32410264
59	0xbe84857f	-0.258831
60	0x3e6de008	0.23229992
61	0xbe83abe7	-0.2571709
62	0xbe891912	-0.2677694
63	0x3d6c6c05	0.057720203

l2.bias f4 [8]
0	0xbe1c72dd	-0.15278192
1	0x3f5065cd	0.81405336
2	0xbe355a89	-0.17710318
3	0x3f3861bd	0.72024137
4	0xbd1f5c19	-0.03890619
5	0x3f3bf536	0.7342104
6	0xbe22b205	-0.15888222
7	0xbe9187d0	-0.2842393

l3.weight f4 [7, 8]
0	0xbfb535a0	-1.415699
1	0x3f07f7ae	0.53112304
2	0xbd79d5b9	-0.060994837
3	0xbf969c8d	-1.1766526
4	0xbe8c6336	-0.27419442
5	0x3f3094c2	0.68976986
6	0xbe06466b	-0.131128
7	0x3e04b646	0.12960157
8	0x3f5411b2	0.828395
9	0xbe33008c	-0.17480677
10	0xbe0d5662	-0.13802484
11	0x3dab53f3	0.083656214
12	0x3dc96d70	0.09835327
13	0xbf925163	-1.1431087
14	0xbf330aba	-0.6993824
15	0x3d85f60f	0.065410726
16	0x3e462fa6	0.19354114
17	0x3f860b2d	1.047216
18	0x3cf4b90c	0.029873393
19	0xbf01084b	-0.5040328
20	0xbc528a2b	-0.012850325
21	0xbf918097	-1.1367368
22	0xbfc0b3d3	-1.5054878
23	0x3e1ccdae	0.15312836
24	0xbf625a7b	-0.8841931
25	0x3ede90b8	0.43469787
26	0x3e9b19e8	0.30293202
27	0x3f469faf	0.7758741
28	0xbd111efc	-0.03542994
29	0xbe0eb9c6	-0.13938054
30	0xbfa603c9	-1.2969905
31	0x3e502fd5	0.20330746
32	0x3ed3df94	0.41381514
33	0xbe887e72	-0.2665897
34	0x3e9ec217	0.31007454
35	0xbfa6dc9f	-1.3036078
36	0x3dde367f	0.10850238
37	0xbfb0df90	-1.3818226
38	0x3f50a09e	0.8149508
39	0x3d2ce978	0.04221484
40	0x3dd83c53	0.10558381
41	0xbf43c9aa	-0.7647959
42	0xbe1a9e21	-0.15099384
43	0xbf2b31ef	-0.6687307
44	0x3cb10355	0.021608034
45	0x3ec1fb51	0.37887052
46	0x3ee05096	0.43811482
47	0xbd9e5acd	-0.077321626
48	0xbfbe10f5	-1.4848925
49	0xbfa6e409	-1.3038341
50	0xbe50a46b	-0.2037522
51	0x3efe3d0e	0.49655956
52	0xbe8ba4a9	-0.27274063
53	0x3f720a3c	0.94546866
54	0xbeb3c626	-0.35112113
55	0xbd00d8d4	-0.031456783

l3.bias f4 [7]
0	0xbe87dbf0	-0.26534986
1	0xbec99c6f	-0.39377162
2	0xbcc0ab51	-0.02351919
3	0x3d5f1ee1	0.054472808
4	0xbdb8c6e5	-0.09022311
5	0xbe6aa984	-0.22916228
6	0xbe0f8836	-0.14016804
